Best_model2.pth (torch, 339375 bytes, 8 tensors)

weight f4 [32, 1, 2, 2]
00000000: 6fab 87be c6d3 0ebf 2abd e93e 3496 c13e
00000010: 884c ab3e 54e1 cebe 16ac aebe 48ad 35be
00000020: 73d3 b8be 7b90 383e d322 72be 6dca ad3e
00000030: 35aa 1fbe 24b3 173d 908c 633e 1a88 203e
00000040: 28b0 dc3d a711 1d3e bdd4 d4bd 262f df3d
00000050: 1da3 363e be4c a23e 430f 08bf 12de e43e
00000060: 077e 6abe a33a e63e 1a2e 083f 0efc 8abe
00000070: 90d8 9d3e cae2 2fbf 500e 95bf 13ee 663c
00000080: eea2 ac3e ea88 a4be be84 363e f823 9d3e
00000090: b68b 9fbe 42ab 28bf 4086 b4be db99 0ebf
000000a0: 5cac dd3d e0e8 d93d e68d ff3d a919 813e
000000b0: a066 34be a4ae 073e 2237 d9be a64e fcbe
000000c0: 2cd3 c73e 2e5e cfbd 066c ebbc e739 2ebf
000000d0: dc91 87bf cf3c fbbe 2b70 d8bf 949a 9c3e
000000e0: b1f8 a93e d2ca 24be 6d85 813e e3ed 60be
000000f0: 4d69 92be 0bb6 33bf 27c6 a03e 7a63 dbbe
00000100: d184 5fbf a418 9bbe c5b0 73be 4d94 ec3e
00000110: 2a9b 29bf b71e a9bf 4390 84bf 2f4c 83bf
00000120: 6039 8c3e 5c1f 303e 5325 a53e 5cd2 afbd
00000130: 092b ab3e a0b5 93be 9a95 b6be 516e c43e
00000140: b875 e33e 840a 03bf 91dd e13e 65b4 ddbe
00000150: 3eac cabd cfd2 8a3e be1f 8a3e cca4 14bf
00000160: d85b 89bd 3034 6a3e f28c ebbe 5aae e8be
00000170: 3f19 053f 8c37 653e 3a89 10bf f469 75be
00000180: fe60 9e3e c66b 38bf 1822 48be 0cc0 7fbf
00000190: 3a8b 64bf f7ae 8cbf 2a8d 4fbd 2a09 02bf
000001a0: aca0 b83e 7cc3 72be b018 bdbe e8fc 4dbe
000001b0: 21d5 aebe fde1 cdbf 6f2a b8bf b890 bebf
000001c0: fb9b 6d3e 8b58 073e 3851 4dbd e81f aa3e
000001d0: 5de6 34be 77ba a3bf 08e3 9b3e 270c a0bf
000001e0: b03c d73d feef be3d 652f 843e fa22 203d
000001f0: 6de4 c3be e0c9 ed3e c8c7 833e 702a 1e3e
-0.2649798 -0.5579189 0.45652133 0.37809908 0.33456826 -0.40406287 -0.34115666 -0.17741883
-0.36098823 0.18023865 -0.23646097 0.339435 -0.15592273 0.037036076 0.22221589 0.15676919
0.10775787 0.15338765 -0.10392139 0.10897665 0.1783566 0.31699175 -0.5314829 0.44700676
-0.22899638 0.4496661 0.53195345 -0.27145427 0.30829287 -0.6870543 -1.1644993 0.014094847
0.33718055 -0.32135707 0.17824075 0.30691504 -0.31161278 -0.6588632 -0.35258675 -0.55703515
0.108238906 0.106401205 0.12478237 0.2521489 -0.17617273 0.13250214 -0.42424875 -0.49278754
0.390283 -0.10125385 -0.028738033 -0.680571 -1.0591388 -0.4906983 -1.6909231 0.30586684
0.3319755 -0.16092995 0.25297108 -0.21965747 -0.28595963 -0.7019965 0.31401178 -0.42849332
-0.87312037 -0.30292237 -0.23797901 0.46206895 -0.66252387 -1.3212498 -1.0356525 -1.0257624
0.27387524 0.17199463 0.3225504 -0.08585045 0.3343127 -0.28849506 -0.35661012 0.38365415
0.4442575 -0.5118792 0.44114354 -0.43301693 -0.09896134 0.2711396 0.26977342 -0.5806396
-0.06706971 0.2287147 -0.4600597 -0.4544552 0.5199165 0.2238447 -0.5645939 -0.23966199
0.30933374 -0.7203945 -0.19544256 -0.99902415 -0.8927494 -1.0990895 -0.050671734 -0.50795233
0.36060083 -0.23707384 -0.36932898 -0.20116007 -0.3414698 -1.6084591 -1.438795 -1.4887915
0.23204033 0.1321737 -0.050126284 0.33227468 -0.17666002 -1.279128 0.3044665 -1.2503709
0.10509622 0.093231186 0.2581741 0.039095856 -0.38260213 0.4644308 0.25738358 0.15445876

bias f4 [32]
00000000: 3549 64bd fe21 d9be 4720 f6bc 494e 5bbe
00000010: d8c1 01bd f0ec a4be 2197 a5be 4f8d 92bc
00000020: 3ac0 b3be 4671 7dba a1df 8abe 6482 4abe
00000030: a6b0 883c 20c7 543c 8dc5 15bf 3b05 0ebd
00000040: 2846 1abc d25e bb3d 09c2 89be f40c 6abe
00000050: d273 0cbd 0886 e0be 648b ddbe ec9e 30bc
00000060: afb4 b5bb 68f6 1cbb 2c25 d3be 1408 323d
00000070: 3f5a febe 2c8a 45bd 7bc5 63bc 25b9 adbe
-0.05573388 -0.42408746 -0.030044688 -0.21416582 -0.031679004 -0.3221202 -0.32341865 -0.017889647
-0.35107595 -0.0009668063 -0.2712374 -0.19776303 0.016685795 0.012986928 -0.58504564 -0.034672957
-0.009416141 0.09148945 -0.2690585 -0.22856504 -0.034290142 -0.43852258 -0.4327041 -0.010780077
-0.005545221 -0.002395058 -0.41239297 0.043464735 -0.49678227 -0.048227474 -0.0139020635 -0.33930317

weight f4 [16, 32, 8, 8]
00000000: 6ca8 a4bc 1fa2 2ebd 587f 05bc 29f8 81ba
00000010: 4890 32bc f33b 75bc 5cb7 83bc a37e 1d3c
00000020: 9c1d 88b9 222f 97bc b8bc 85bc 1180 163c
00000030: 7296 22bd 9105 6dbc 8e02 14bd 62d1 0bbd
00000040: 4086 b93a 3036 43bc 16d6 77bc 2e20 213c
00000050: 791c a9bb 0c29 5dbb bbc9 72bc 9475 0f3c
00000060: 806f 25bc 52fa 09bc e743 81bc ece6 14bd
00000070: 6ee3 b83c d74c 2dbc c2fb e63c 6a7b 03bd
00000080: 480b c6bc f491 94bb 033d 39bc 29f0 bebc
00000090: 9854 5e3b f62a babc f39f 4dbc 3422 36bb
000000a0: 9e3e 8fbc dc98 36bb a65d 2d3b 0e5a db3c
000000b0: 1c21 2fbb 9b3c 9cbc c01d 813c 02b6 7fbc
000000c0: 600f 873a ae72 223d d8cd f5bb 456a 7c3c
000000d0: 591c 3c3c 5942 953b b322 91bb 282a d5bc
000000e0: 265a 763c 7ba9 243c e0bb 383c 1701 a53b
000000f0: fa04 38bc aa1b 39bd 6e82 4abc 608b 79bc
00000100: 0802 773b f584 923c a01c 83bc 9a66 64bc
00000110: 9fc8 93bc f42a 8cbb 58a6 62bc 16d9 603c
00000120: 1fbf 56bc 42df 8cbc 347c 53bc 3b34 923c
00000130: c0be f339 506a 8dbc ae2a 493c 1c7a e33b
00000140: 7118 28bc 9396 0abc da38 4c3c fe23 413c
00000150: 5b48 1ebc 2131 a03c d512 803c 88d0 43bb
00000160: 8a61 483c 5070 30bc e594 aa3c 400f d0ba
00000170: 2d3d 52bc 9eef 85bc 4a06 11bc b90c 983c
00000180: 40cb 713b bc86 84bb f0fe 333b 864c 91bc
00000190: 2b35 883c 0ff3 02bc c42f edbb 6f97 893c
000001a0: e4b5 c0bb 6fbe 873c 6efb 77bc fd0e 12bc
000001b0: 4eb7 7a3c a01f 5c3b 3f5c ab3c 8054 ea3b
000001c0: 36b0 4abc 7e65 153c c6af 113c f0ec a53b
000001d0: 760a 653c 9638 91bc fd5d 933c f907 40bc
000001e0: 3a65 9dbc ad79 903c 70f7 543b b6db 07bc
000001f0: c840 893b dda1 9a3c 8542 82bc 06cf acbc
00000200: a0bd 59bb f802 e9bc a3a3 41bc a7e8 903c
00000210: ef32 1abc 4d63 66bc 36ef 5cbc 07ae 9fbb
00000220: 8e93 84bc 77b7 313b b4d3 8d3c c7cf 1dbd
00000230: ead6 3ebd 6554 39bd 7db1 39bc c0d5 b1ba
00000240: 6888 53bb ed3e 95ba a465 233c fe25 363c
00000250: 6820 a83c f7db 5cbc 094d 78bb 9009 dcbc
00000260: 356d 9b3c 33b1 783c 1d28 adbc 7fda b33c
00000270: 34dc cdbc d7d2 d5bb 2fcb cd3b b51a 82bb
00000280: 42bb 81bb a010 d03c 832a adbc e711 ce3b
00000290: a234 dd3b c77d abbc ee96 e8bb 035c 67bc
000002a0: 93e2 4a3b cdf4 1bbb dd21 6b3c 4d06 c9bb
000002b0: 8148 87bc a7a6 a1bc 0a88 acbb 82f0 85bc
000002c0: e2d9 98bb e347 293c b121 80bc 4098 d33a
000002d0: 5fc6 78bc fd19 d23b 59eb 1cbb 7cbd 95bc
000002e0: 0878 79bb 3e4d 18bc 9de9 0abd 6097 333c
000002f0: f864 a6bc 3f5a 16bd fda8 61bc c04f 9e3a
00000300: 7a26 9bbb 3104 0fbd 1043 7a3b db2c b7ba
00000310: 4444 c23c 1303 6dbb bda2 0fbd 7aaa ad3c
00000320: 1136 a53b 673c c1bc fea4 c8bc 78de c03c
00000330: 4bf5 b2bc 731d 09bb 3e67 7dbc 36d2 913c
00000340: 5d20 e73b c4e0 a93b 14c5 ceba 503c 47bb
00000350: 9127 2dbc 4e90 5bbc 412f 543c 6bcf 9dbc
00000360: d445 e2bc 10d1 e8bc 2abc 4db9 a1de 063c
00000370: 7eff e3bc 8752 6fbc 5f24 b03a d84b cebc
00000380: 675c c23a 299c ca3b b396 24ba 7cd0 773b
00000390: 4d94 823c 0cc6 90bc f38d 723c eb55 67bc
000003a0: be4a 01bc f575 3abb 1836 8fbc 3630 15bb
000003b0: 1715 8fbb f171 69bc e22f 9c3b ced9 fcbc
000003c0: d77b 0e3b b0b8 c7bc d629 e6bc 3be4 9bbc
000003d0: d38b 27bc 7d8a dfbc b6e2 9b3c a6a6 1cbc
000003e0: 22dc c2bc 2804 3d3c 6540 663c 53fc 31bc
000003f0: 37c3 cb3b 0fb1 6cbb 603c 8aba 1d79 763c
-0.020099841 -0.04263508 -0.008148037 -0.0009915876 -0.010898657 -0.014967906 -0.016078644 0.009612712
-0.00025962002 -0.018455092 -0.01632534 0.009185807 -0.039694257 -0.014466659 -0.03613525 -0.03413523
0.001415439 -0.011914775 -0.015126726 0.009834332 -0.005160865 -0.003374639 -0.014818604 0.00875606
-0.010097384 -0.008421497 -0.015779449 -0.036353037 0.022569384 -0.010577402 0.02819622 -0.03210012
-0.024175301 -0.0045340005 -0.01130605 -0.023307877 0.0033924934 -0.022725563 -0.012550342 -0.0027791383
-0.017485913 -0.0027862107 0.0026453524 0.02677634 -0.0026722616 -0.019071868 0.015761256 -0.015607359
0.0010304265 0.03966015 -0.007501345 0.015406196 0.011481368 0.0045550284 -0.0044291853 -0.026021078
0.0150361415 0.010050173 0.011275262 0.0050355303 -0.011231655 -0.045192398 -0.012360198 -0.0152309835
0.003769042 0.017885664 -0.01600486 -0.013940478 -0.01804 -0.0042775813 -0.013833605 0.013723632
-0.01310709 -0.017196301 -0.01290803 0.017847171 0.00046490692 -0.017262608 0.012278242 0.006942047
-0.010259734 -0.008458751 0.012464726 0.011788366 -0.009660806 0.019554676 0.01563398 -0.0029878933
0.012230286 -0.010768965 0.020822952 -0.0015873685 -0.012831968 -0.01634961 -0.008851597 0.018560754
0.0036894828 -0.004044382 0.0027465187 -0.017736685 0.016626915 -0.00799252 -0.00723836 0.016795842
-0.005881058 0.016570298 -0.015135629 -0.008914706 0.015302492 0.0033588186 0.02091801 0.0071511865
-0.0123711135 0.009118436 0.008892005 0.0050636455 0.013979545 -0.017727178 0.017989153 -0.011720651
-0.019213308 0.017636145 0.0032496117 -0.008292129 0.0041886307 0.01887601 -0.01590086 -0.02109481
-0.0033224598 -0.028443798 -0.011818799 0.017689062 -0.009411558 -0.014061761 -0.013484767 -0.0048730406
-0.01618364 0.002711741 0.017312862 -0.03852823 -0.046591677 -0.0452465 -0.01133382 -0.0013567731
-0.003227735 -0.0011386551 0.0099729635 0.0111174565 0.020523265 -0.013480178 -0.0037887713 -0.026860029
0.018972972 0.015178966 -0.021137292 0.021954773 -0.025129415 -0.006525378 0.006280325 -0.003970469
-0.0039590904 0.025398552 -0.021138435 0.006288755 0.006750659 -0.020933999 -0.0070980703 -0.014121058
0.0030957803 -0.0023797036 0.014351335 -0.0061347843 -0.016514065 -0.019732786 -0.0052652406 -0.016350035
-0.0046646455 0.010332081 -0.015641065 0.0016143396 -0.015184014 0.0064117895 -0.002394399 -0.01827883
-0.003806593 -0.00929576 -0.033914197 0.010961384 -0.020311818 -0.03670716 -0.0137732 0.0012078211
-0.0047348114 -0.034916107 0.0038186945 -0.001397516 0.023714192 -0.0036165162 -0.03506731 0.021199454
0.0050418456 -0.023588372 -0.024492737 0.023543581 -0.02184548 -0.0020922094 -0.015466509 0.017800432
0.0070534186 0.005184265 -0.0015775287 -0.003040094 -0.010568515 -0.013401104 0.012950719 -0.019263944
-0.027621187 -0.028420001 -0.0001962042 0.00823179 -0.02783179 -0.014607078 0.0013438574 -0.02518265
0.0014828563 0.0061831665 -0.00062785594 0.0037813475 0.015939856 -0.017672561 0.014804351 -0.0141196055
-0.007891355 -0.0028451656 -0.017481849 -0.0022764332 -0.004366528 -0.014248357 0.0047664503 -0.030865576
0.0021741295 -0.024380058 -0.02809612 -0.019029727 -0.010226208 -0.027287716 0.019029003 -0.009561216
-0.023786608 0.011536635 0.014053439 -0.010863381 0.00621834 -0.0036116277 -0.0010546558 0.015043524

bias f4 [16]
00000000: e21a 2cbc 62fe d53c 36cc 84bc a309 71bc
00000010: 4abe d0bc 6152 0dbd fc2d 48bc d9bc 3fbd
00000020: 388a fcbb c3df 41bd 9059 39bd 958b 63bd
00000030: 4850 b1bc d538 21bd 0b30 963d c7a1 47bd
-0.010504456 0.026122276 -0.016210657 -0.01471177 -0.025481362 -0.03450239 -0.012217995 -0.04681096
-0.0077069066 -0.047332536 -0.04525143 -0.055553038 -0.021644726 -0.03936084 0.07333382 -0.048738267

weight f4 [64, 784]
00000000: ab87 55bb 4c0a e3bc ea4c 89bc d2df fd3c
00000010: 0a07 d83c d8a6 3fbc 8eed 7d3c 138e bfbc
00000020: afca 2939 79dd b13c 6a07 f33c 688b 163c
00000030: 0548 92bc a6cf 3d3c 3ebe b0bc f814 a7bc
00000040: 1392 ecbc d994 61bc 52f0 f73c 34cb 583c
00000050: b04b 343c b852 96bc 8099 263b 5f8d 20bc
00000060: a283 ad3c dee3 22bc f076 7d3c e541 cdbc
00000070: 0666 b33c b2d5 953c 87b5 243d 8338 b3b8
00000080: 6521 adbc 3609 b63c a50f 123d 8885 653c
00000090: 0026 ae3c 9eee bcbc a12a e9bc a854 febc
000000a0: 24a9 9dbb d3d5 a6bc cebb 86bc 2cbb c0bc
000000b0: 3a72 08bd 9852 833b 4521 98bc 8031 f93b
000000c0: d87f 903c 33bd 09bd 542e cebc 144f 853b
000000d0: 5211 4abd 0779 48bd 1313 27bc 18bc 9f3b
000000e0: c1bd fdbc 6eb8 16bd e379 9abc dbac 5b3c
000000f0: 7906 c7bc bfd2 4fbc b5e5 dcbb 01bd acbc
00000100: c214 b63a 91f6 45bd f907 00bc 3146 343b
00000110: b1ad a4bc cfad 863c 8b48 44bc 9780 30bc
00000120: 3e4f e2bc 5eb4 5c3b 0d2d 983c af68 20bb
00000130: 45da a83c 5d63 0fbd 21c9 01bd f03d c03a
00000140: 3035 2bbd 7ea3 bfbc f8bd cdbc 92c2 18bd
00000150: 0733 87bd 290d adbc f506 6cbb ecd7 1ebd
00000160: 3cc3 55bc 4fa6 14bd 465f 06bd 9373 84bd
00000170: 3e4d 4abd 41f6 2bbd e41d 51bc fc9e 9fbc
00000180: 0ad6 d3bc 3780 223c 2f93 973c 1242 583b
00000190: bc92 793b e377 b7bc 2635 273c d705 80bc
000001a0: fcf3 a3bc d74d 213c 8412 fb3a f360 a63c
000001b0: 739b f13c 025b acbc f623 dabc d6f8 a5bc
000001c0: cfa1 703c c0ac 063c ee55 3d3c da7f 3c3c
000001d0: d5a7 c33c 55e1 0a3d 8e4d dc3c 02bf b6bc
000001e0: af54 1b3d b649 96bc 8963 013d 15f4 053c
000001f0: f460 003d dc63 edbc 08ff c03b 53aa dbb9
00000200: 8339 29bc f6d5 07bb 90a5 a2bc f2d2 6dbb
00000210: 32bc 1d3d aa1c 99bb 5aea 9abb fd2e 19bd
00000220: 34fa 053b d82a 153d 135f a4bc 5f36 7dbc
00000230: 2caf 493c bd3a fc3c 8a6e 83bc b3d4 023d
00000240: dad3 4fbc 7a43 c7bc 5da2 063b 0934 ebbc
00000250: 8216 103d ac9a 25bc d694 dcbc c946 c1bc
00000260: 0acb e9bc 988f 1ebc 4c08 09bd ab29 9d3c
00000270: da07 273b 276a a33c ff50 c83c e43e f6bb
00000280: 439a 06bc a697 c7ba f003 93bb 4e55 4e3b
00000290: 9013 1f3c cec0 693c 53cd b63c 8c92 aebc
000002a0: 7e0b 28bd 6ec9 17bd 3bbc 0cbc 3423 ad3c
000002b0: c546 a03c 21fc 1d3c 7604 deba 12f2 9c3c
000002c0: b60e 8c3c ed24 19bb d834 ce3c 53e7 eb3b
000002d0: b653 bf3c 2792 8c3b b6a7 93bc e0d3 353b
000002e0: ae60 b83c 960a 673c c214 12ba 2796 993c
000002f0: 4a65 6dbc 03b5 a5bc e1df 7dbc 3b87 53bc
00000300: 9f40 053d 4ae6 0d3d e49e ed3c 271f 9dbc
00000310: 244f e43c bcfb d0bc fc31 4d3c 19fd 9ebc
00000320: 7873 013d 9be1 8cbc 4cc3 56bc a8c9 98ba
00000330: 60a8 c63b 9601 cc3c 00a8 41bc 4317 05bd
00000340: 5e1f 0cbb d882 a2ba e420 4bbc 651d 103d
00000350: 6e2d cfbc c37f bf3c e9db 08bd 2380 0fbc
00000360: 4a6e 05bb 07e6 983c 20e8 8ebb c929 b9bc
00000370: 9644 953c 8c69 5e3c c86d ff3a d2fe 4fba
00000380: 62ac f4bc 1d93 d3bc fd5e 0bbd 39b6 853b
00000390: 0227 dfbc 9400 c53c 6412 febc b4f1 05bd
000003a0: d170 7f3c ce8c 0bbd d155 1b3d 9bb8 ba3c
000003b0: 1ef7 fe3b b70c 6bbb c48d b9bc 46c0 9bbb
000003c0: 2186 df3b 351a 48bc c2b5 b93c bdb8 18bc
000003d0: 2b65 52bc ffdf 9dbc 4230 323c ebd7 e6bc
000003e0: 94db 27bd d458 0fbd 619a 33bd d453 62bd
000003f0: 1157 1239 5528 cbbc 531a 533b 2539 39bd
-0.0032582085 -0.02771487 -0.016760308 0.030990515 0.026370544 -0.0116974935 0.015498532 -0.023383176
0.00016192601 0.021712052 0.029666621 0.0091885105 -0.017856607 0.011585152 -0.02157509 -0.02039574
-0.028878247 -0.013768398 0.03026596 0.013232041 0.011004373 -0.01834999 0.0025421083 -0.0097993305
0.021180931 -0.009942023 0.015470251 -0.025055835 0.021899235 0.018290374 0.04021218 -8.545911e-05
-0.021134088 0.022221189 0.03565945 0.014008887 0.021258354 -0.023063 -0.02846271 -0.031046227
-0.004811423 -0.020365631 -0.016446974 -0.02352675 -0.03331206 0.0040076487 -0.018570552 0.007604778
0.017639086 -0.0336277 -0.025168575 0.0040682647 -0.049332924 -0.048943546 -0.010197419 0.0048747174
-0.03097427 -0.03679698 -0.018856948 0.013407911 -0.024295079 -0.012684523 -0.0067412504 -0.021086218
0.0013891684 -0.048330847 -0.007814401 0.0027507658 -0.020102354 0.0164403 -0.011980186 -0.010772846
-0.027625676 0.0033676843 0.01857617 -0.0024476459 0.020611892 -0.03500687 -0.031685952 0.0014666896
-0.04179877 -0.023393389 -0.025114998 -0.03729493 -0.066015296 -0.02112444 -0.003601489 -0.038780138
-0.013047036 -0.036291417 -0.032805704 -0.064673565 -0.04939007 -0.041982893 -0.012763474 -0.01948499
-0.025858898 0.009918264 0.0185028 0.0032998365 0.0038081845 -0.022396034 0.010205543 -0.015627785
-0.020013802 0.009845219 0.0019155298 0.0203099 0.02949307 -0.02103949 -0.026628476 -0.020260256
0.014687016 0.008219898 0.011556132 0.011505092 0.02388374 0.0339063 0.02689245 -0.022307876
0.037922557 -0.018345695 0.031589065 0.0081758695 0.03134246 -0.02897828 0.005889777 -0.00041897836
-0.010328653 -0.0020726896 -0.019854337 -0.0036289063 0.038509555 -0.0046726065 -0.004727644 -0.037398327
0.0020443322 0.036417812 -0.020064866 -0.015454858 0.012309831 0.030789727 -0.01604392 0.031941127
-0.012684787 -0.024324168 0.0020543553 -0.028711336 0.035177715 -0.010107677 -0.02692644 -0.023593323
-0.0285392 -0.00967779 -0.03345518 0.019184908 0.0025486858 0.019948078 0.024452684 -0.0075148214
-0.00821549 -0.001522769 -0.0044865534 0.003148395 0.009709254 0.01426716 0.022314703 -0.021310113
-0.041026585 -0.037057333 -0.0085897995 0.02113495 0.019564996 0.009642632 -0.0016938585 0.019158397
0.017096858 -0.0023367957 0.025171682 0.007199207 0.023355346 0.0042898837 -0.018024307 0.0027744696
0.022507038 0.014101645 -0.0005572551 0.018748356 -0.014489481 -0.020227915 -0.015495271 -0.012910659
0.03253233 0.03464345 0.029006429 -0.019179894 0.027869768 -0.025510661 0.012524124 -0.019407796
0.03160426 -0.01719742 -0.013108086 -0.0011656778 0.0060625523 0.0249031 -0.0118198395 -0.032492887
-0.0021381 -0.0012398614 -0.012397978 0.035184283 -0.025290217 0.023376351 -0.033412848 -0.0087585775
-0.0020359927 0.018664373 -0.0043611676 -0.022602933 0.01822118 0.013574969 0.0019487673 -0.00079343945
-0.029867355 -0.025826985 -0.034026135 0.0040805605 -0.02724028 0.024048127 -0.031014629 -0.03270121
0.015590862 -0.03406983 0.037923638 0.022793105 0.0077809235 -0.0035865733 -0.022650607 -0.0047531454
0.0068214093 -0.0122132795 0.022669677 -0.009321389 -0.012841503 -0.019271849 0.010875763 -0.02817913
-0.04098089 -0.034996822 -0.0438484 -0.055255726 0.0001395608 -0.024799505 0.0032211735 -0.045220513

bias f4 [64]
00000000: 2eed 41bc 5176 3b3d 42c7 afbe ba39 36be
00000010: e1c2 913c e406 66be a19f b4bd 0ff5 463e
00000020: 247f 3b3b c00b a8bd 074d bc3d 2976 e3bd
00000030: 1d3a 943e 8689 fa3e 8e0e 13bd d967 293e
00000040: 3be0 99bc b58d 543c 67ef e93b 7390 9dbd
00000050: 4126 16bd f433 49be 61dc a6be bebd 12be
00000060: 68a8 7e3e 5916 4bbe a313 043d 33c8 8abb
00000070: 16f8 07be 46fa d83d 989b 09bc 7f3e ff3d
00000080: d09a 03bd 70c3 e7be 8afc 8dbe b8f7 20bf
00000090: 7447 82be db7b e4bb fd43 27be 5501 16be
000000a0: f13b 02be ef81 db3a 3bc9 73be bc65 bc3e
000000b0: 3279 8d3d 4550 b23c 1ec0 4a3d 6798 34bd
000000c0: 9b05 c3bd fbac bfbe b205 2fbd 33e4 40bd
000000d0: bc48 14bc 1f7d f9bc 59db 4a3e 0911 613e
000000e0: 26dd f13e 552c ebbd 2d2a 1a3e 6d79 a1be
000000f0: 3d86 abbb aaa1 c53d 0fc8 41bd efed 66be
-0.011836333 0.045767132 -0.3433171 -0.17795458 0.01779312 -0.22463566 -0.08819509 0.1942942
0.0028609717 -0.08205366 0.09194379 -0.11106522 0.28950587 0.48933047 -0.035902552 0.16543521
-0.01878368 0.012973239 0.0071391347 -0.07693567 -0.036657576 -0.19648725 -0.3259001 -0.14330193
0.2486893 -0.19832744 0.03224529 -0.0042352914 -0.13278231 0.10594611 -0.008398913 0.12463092
-0.032130063 -0.45266294 -0.27731735 -0.6287799 -0.2544514 -0.0069727725 -0.16334529 -0.14648946
-0.12718178 0.0016747097 -0.23807232 0.36796367 0.06907882 0.021766791 0.049499623 -0.044090655
-0.095225535 -0.3743666 -0.04273004 -0.047092628 -0.009050544 -0.03045517 0.19810237 0.21979155
0.47239035 -0.11483065 0.15055151 -0.31537953 -0.0052345083 0.096499756 -0.04730993 -0.22551702

weight f4 [10, 64]
00000000: 5221 463d 3964 92be fe2d 913e 9cbb 263e
00000010: fe97 373d 7ae4 9bbe 1035 b6be 206d 24be
00000020: 00c6 c7ba 4a9d b1bc d543 c2bd c066 debe
00000030: 5ef6 c5be 60f4 bbbd 516b a1be 5ad0 473e
00000040: 7008 14bd 4206 ba3c edb5 873d 937e fcbe
00000050: 162c a53d 9e28 233d eb71 22bf c69f abbe
00000060: 275c ba3d c380 333e 3c35 903e 32e6 b1bc
00000070: 8a1c 24be 0e3c 15bc f101 c8bd f9a4 e3bd
00000080: 2775 ba3c f09e 81bd f491 b53d 2148 673c
00000090: 9e5d 1bbf e114 7c3d e66a 8bbe 2ecc aabe
000000a0: aa2c 743d fa83 39bf 1f5e 12bf 2bf2 3a3e
000000b0: 72ae 38bd b246 f0bd 8bc2 87be 08e7 033d
000000c0: 80a0 5e3e 7407 1cbe a6a0 bcbe e369 8cbc
000000d0: 5935 3a3d 5b41 3bbd d04c 7c3e a364 aebe
000000e0: c419 bebd b3cf f2be 1222 b53d 2703 f2be
000000f0: b1ae 403d cfdc 19bf 1dc4 d8be 98e9 843e
00000100: b49f a43d dc6f 953e 4cf9 22bf d339 f8be
00000110: 7b19 36be 149e 3cbf 38b0 3f3e 5f04 94be
00000120: 3569 febd 2634 fc3d 18f4 53be 9e60 15bf
00000130: 30dc 06bf d6e6 e3be 1b48 e63d a998 cabe
00000140: e9bb 0dbe 6c75 2fbd 6a85 483d cd9c f1bc
00000150: 765b cb3d ba85 aebe a467 e53d dc2c a3be
00000160: 6042 bdbe ad61 803d 7e9a 0cbe ad6e 8ebb
00000170: b50b b3be b0e5 14be 3b1b e13d 7edd a9be
00000180: 7515 f0bd d3c4 503d 1dda d4be 37a7 7fbe
00000190: d350 8e3e a09c 9cbd 9af0 eebe 45b9 11bf
000001a0: 7e7f 4fbe 1d94 b1bd 32f4 a2be 061c aabe
000001b0: f938 483e a42c c43c 1532 64be a425 aebd
000001c0: 878e 433e 806d d53e d504 203e f5ce c5bd
000001d0: eb10 a1bd b8f9 cabd 8154 41be fd16 9a3d
000001e0: 2ba3 b9be ec53 c43e 070c 8bbe 8df7 cdbd
000001f0: 8f81 5abc cdb1 a4be e14e 80bf 4782 15bf
00000200: afd5 c33c f471 463d 225d 673e b7c0 d1be
00000210: 191b 063e b0ba cebe eb36 17be 0170 823e
00000220: 2bd8 9dbd 4fb4 dd3d 41a2 253c 82a3 4dbe
00000230: c6ae 1fbe 40cb 56be 009d 2fbf 6adf 833e
00000240: ea3a 48bd d8f7 77bd d7b0 c3bd 0db7 20bf
00000250: 9d57 e73c 2b33 0bbd a79c 323d 00df 6d3e
00000260: ba6d 87be 5c5b babe 6664 07be b9d6 a7bd
00000270: 380d 0bbf af5a bdbe f4e0 ac3d fe75 33bc
00000280: b042 3c3c b62c e63d 816e fabb 6379 33be
00000290: 4d5b c0bd ba32 783d 671a e33d e494 813e
000002a0: e380 65be e451 263e 2352 2b3e 4ed7 0dbe
000002b0: f01d 0e3e 23d2 d73d b3a0 5fbe 9563 afbd
000002c0: d7f8 943e c6fc 433e f209 22bc 3048 9f3d
000002d0: 78be fdbd 2149 9bbd c4dc 393d 3a05 253e
000002e0: b4ef 193e ba69 91be c7d1 0abf 9b37 da3c
000002f0: 1df0 7abd abdb 74be 68d6 d7be 5fd6 07bf
00000300: 9867 a1bd bb28 f3be 08f6 513b 441f c0be
00000310: 0f67 913e 4338 84be 76ae be3c 0489 a1be
00000320: 7b02 b63d 2286 c0be 003c d4bc 9835 d73d
00000330: 5dc8 73be 1e06 0d3e 8101 ad3d 499d 65be
00000340: 6ec7 c6bd bb90 e43b 9874 943d 887d 0b3e
00000350: 2ad8 eabd 72df 21be 2ab2 483e 8653 c2bd
00000360: e80d 41be 5145 e0be 45bd e4bd a5a4 253d
00000370: 0c0c c9be cf16 aebe 44e3 e3bd d2e7 8e3e
00000380: aecd c43c 3063 243e 2e04 b3bd 96ce 1d3e
00000390: 3f24 39be 924d e1bd a90f 58be 9901 cfbe
000003a0: 6df3 9b3e 3e32 91be d41e f0bd daa6 233e
000003b0: f310 9abc 8281 9fbd 2e2f c1be d3a9 3a3d
000003c0: 3d91 14be 3871 21be c941 9f3e d4ed 9f3d
000003d0: 9e5d c23d 0bcb d3bd 8a0c 9abe af24 c7bd
000003e0: db41 acbe c7f8 abbe 8073 17bf f194 81bd
000003f0: 337b aebd 759c a33c fc44 64be 4c55 8dbe
0.04837162 -0.2859209 0.28355402 0.16282505 0.044822685 -0.3044775 -0.35587358 -0.16057253
-0.0015241504 -0.021681447 -0.09485594 -0.43437767 -0.38664526 -0.0917747 -0.31527188 0.19513074
-0.03614086 0.022708062 0.066264965 -0.49315318 0.08065049 0.039833657 -0.63455075 -0.33520335
0.09099608 0.17529587 0.28165615 -0.021716211 -0.16026512 -0.009108556 -0.09765995 -0.111154504
0.02276094 -0.06329143 0.08865729 0.014116318 -0.60689723 0.06154335 -0.27229995 -0.33358902
0.059612907 -0.72467005 -0.5717487 0.18256442 -0.04508824 -0.11732234 -0.26515612 0.03220275
0.21740913 -0.15237218 -0.36841315 -0.017140334 0.045461033 -0.045716625 0.24638677 -0.34061155
-0.09282258 -0.47424087 0.08844389 -0.4726803 0.0470416 -0.6010255 -0.42337123 0.25959468
0.080382735 0.29186904 -0.63661647 -0.48481616 -0.17783158 -0.7367871 0.18719566 -0.28909585
-0.124224104 0.12314634 -0.20698583 -0.5835055 -0.5267973 -0.4451205 0.11244222 -0.39569595
-0.13841213 -0.04283659 0.04895536 -0.029493714 0.09929554 -0.340864 0.112014085 -0.31870162
-0.36964703 0.0626863 -0.13730809 -0.0043466897 -0.3496987 -0.14540744 0.10991522 -0.33176798
-0.117228426 0.050968956 -0.41572657 -0.24966131 0.2779604 -0.07647061 -0.4666794 -0.56923324
-0.20263478 -0.086708285 -0.3182693 -0.33224505 0.19552983 0.023947068 -0.2228473 -0.08503273
0.19097339 0.41685104 0.15626843 -0.096586145 -0.07864555 -0.09910911 -0.18879892 0.07523916
-0.362573 0.38345277 -0.27157614 -0.10056982 -0.013336553 -0.321669 -1.0024072 -0.5840191
0.023905603 0.048448518 0.22594121 -0.40967342 0.13096274 -0.40376806 -0.14767043 0.25476077
-0.077072464 0.10825407 0.010109485 -0.20081905 -0.15594015 -0.20975971 -0.6859894 0.2575639
-0.04888431 -0.060539097 -0.09555214 -0.62779313 0.02824002 -0.033984344 0.043606427 0.23229599
-0.26450902 -0.36397827 -0.13221893 -0.08195252 -0.54317045 -0.3698325 0.08441344 -0.0109534245
0.011490509 0.11238997 -0.0076425676 -0.17526774 -0.09392414 0.06059525 0.1108902 0.25308907
-0.22412448 0.16242176 0.16730551 -0.13851663 0.13878608 0.10538127 -0.21838646 -0.08563916
0.290961 0.19139394 -0.009890066 0.077774405 -0.12389845 -0.075823076 0.045376554 0.16115275
0.15032846 -0.28400975 -0.54226345 0.026637843 -0.061264146 -0.23911922 -0.42155766 -0.5306148
-0.07881087 -0.47492012 0.0032037515 -0.37523854 0.2839894 -0.25824174 0.023276549 -0.31549847
0.08887192 -0.37602335 -0.025907516 0.10508269 -0.23806901 0.13771865 0.084475525 -0.22423281
-0.09706007 0.006975261 0.07248801 0.13622105 -0.11467011 -0.15807894 0.19599214 -0.09488587
-0.18852961 -0.43802884 -0.11168913 0.04044022 -0.39267004 -0.34001777 -0.11127332 0.2791124
0.024023857 0.16053462 -0.087410316 0.15410838 -0.18080233 -0.110011235 -0.21099724 -0.40430906
0.30459157 -0.28358644 -0.1172463 0.15981618 -0.01880691 -0.077883735 -0.37731308 0.045572113
-0.14508529 -0.15765846 0.31104878 0.07809034 0.09490512 -0.10341462 -0.30087692 -0.09723794
-0.33643994 -0.3358824 -0.59160614 -0.063272364 -0.08519592 0.019972065 -0.2229194 -0.2760414

bias f4 [10]
00000000: 8669 513e 4e0f 00be 766a 7cbe 6521 8cbe
00000010: d2f6 a63d 2e97 7bbe d911 acbe 0024 dd3d
00000020: 8755 ad3e eb98 94bd
0.2045041 -0.12505838 -0.24649987 -0.27369228 0.08152546 -0.24569389 -0.33607367 0.10797882
0.33854315 -0.07255729
